artifacts/29cefa77-af6c-4e0e-b7ad-b2a0fabe308a_train.npz (npz, 81514 bytes, 1 tensors)

X f8 [2532, 3]
000000 ce d9 be c7 25 3e e6 bf e2 c4 46 5e e1 68 f9 bf
       -0.6950863744048605 -1.588105552928305
000010 a7 98 c5 d6 0d 1e ec bf 3a 15 e3 72 13 f4 da bf
       -0.8786687083018209 -0.4211472150748993
000020 e0 e8 92 6a a4 b7 f5 3f e8 a6 e6 9d c0 32 f0 bf
       1.3573345339814793 -1.0123907249457549
000030 ce d9 be c7 25 3e e6 bf f9 ab 8e e8 a7 66 bc 3f
       -0.6950863744048605 0.11094140460652104
000040 09 1a 37 38 3b 98 c0 3f fd 7c d0 82 b8 6f f4 3f
       0.129645731400345 1.2772755727708607
000050 94 7f ee b3 e0 26 f9 3f 14 2c 4a 60 6f a7 e1 bf
       1.5719916370944462 -0.5516888504656685
000060 b5 d1 71 b7 21 50 f5 3f f6 12 95 dd 1e c1 f9 bf
       1.332063404636853 -1.6096485763129613
000070 5f f5 8c a0 a7 d9 d7 3f 59 01 11 8e 82 5a ee 3f
       0.37265959433337587 0.9485485815749072
000080 77 fb db c7 29 27 dd 3f 7f 45 39 cd 35 4a eb bf
       0.4555153323889764 -0.8528088577533451
000090 d7 b5 fb 43 ef 53 e0 3f a4 d5 61 13 01 b7 f8 bf
       0.5102459266469691 -1.544678760253512
0000a0 30 b6 20 4d f2 a9 fa 3f b1 63 53 f9 3c 45 f8 bf
       1.6664908421329407 -1.5169038523947445
0000b0 d7 e9 b3 9d 13 20 f6 3f 9a 1e 8c c5 a5 4b e1 3f
       1.3828312073006737 0.5404843195292017
0000c0 08 05 49 52 0b 18 e9 3f f7 2e 02 68 56 73 d3 3f
       0.7841850859769304 0.30391464383204386
0000d0 5b 30 77 c0 e4 e7 f7 bf 21 0d 96 62 0f 06 fa bf
       -1.4941146391093045 -1.626479516126729
0000e0 48 fa 71 68 67 7c db bf bb 11 5a a6 b0 07 cb bf
       -0.42946801376084354 -0.21117218134544466
0000f0 fd 7c d0 82 b8 6f f4 3f 07 60 19 05 38 c2 b3 bf
       1.2772755727708607 -0.07718229412546417
000100 54 41 f1 1b 5c a6 e8 bf dc 8f 0c 0f da a8 b7 bf
       -0.7703075929403362 -0.09242022387894572
000110 bb 97 74 04 d2 da ec bf 2a c9 c1 68 f8 f4 f2 3f
       -0.9017114722271268 1.1848072139806143
000120 5e 30 7c 5e 53 7d e4 bf d1 ee bb ae 70 52 f5 bf
       -0.6402985425388683 -1.3326269937087327
000130 a5 6a ac a7 1d bc f8 bf be 22 db 27 02 73 fb 3f
       -1.545926718687647 1.7155782276987988
000140 07 cd 77 e7 c4 f0 f9 bf 8d 77 23 af 99 2e f0 bf
       -1.621281532451407 -1.011377033362325
000150 3e 83 01 31 f8 fe e7 bf 49 eb a0 5b 37 63 f7 bf
       -0.7498742062708528 -1.4617227153055004
000160 7c b0 e9 e2 5d 14 f8 3f 98 5b 06 e9 38 57 e7 3f
       1.5049723495276615 0.7293972541109381
000170 cb f1 41 2c 77 22 e1 bf a2 c5 f2 f8 e6 79 93 bf
       -0.5354572166830222 -0.01901970762691508
000180 ed c5 ec e2 94 a4 d9 3f 13 32 66 af ac 7e ea 3f
       0.4006702629149846 0.8279632020726829
000190 42 59 c2 a2 d2 cd ec bf be 22 db 27 02 73 fb 3f
       -0.9001248530283095 1.7155782276987988
0001a0 36 82 7e 19 70 c9 d6 bf 9c ee ee 6e 8a 70 fb bf
       -0.3560447930304095 -1.714975770314516
0001b0 b7 08 81 16 94 d5 e3 3f 48 bd 15 d2 a9 30 f2 bf
       0.6198215903789536 -1.136880703586785
0001c0 87 31 f9 d4 09 5a 82 bf 28 b2 c3 7f 66 96 e5 3f
       -0.008960797130520571 0.6746094222449459
0001d0 47 8b c6 49 52 b3 f7 3f 8b 52 17 5e 70 9b e2 bf
       1.4812796480043333 -0.5814744794575558
0001e0 b1 63 53 f9 3c 45 f8 bf 6b 7d 69 d0 f8 9a a2 bf
       -1.5169038523947445 -0.03633859199612285
0001f0 b8 7b 97 e5 84 3a fb bf fd 7c d0 82 b8 6f f4 3f
       -1.7017868965556158 1.2772755727708607
000200 bb 23 3f e2 ea 80 72 bf 13 33 5b 31 15 6b f2 bf
       -0.004517476572751751 -1.1511432579019967
000210 a8 12 ea 88 5c 22 f2 bf 7a e0 02 e6 e1 ef f4 bf
       -1.1333890293327986 -1.308565042954824
000220 9a 05 61 4b a1 bf d5 bf 18 bc 2c f2 2e e3 f3 bf
       -0.339821170437142 -1.242964693064783
000230 55 9f 47 67 a3 ad e3 3f 6f 87 e9 bf ca 70 d1 3f
       0.614946080892859 0.27250927678516396
000240 be 22 db 27 02 73 fb 3f ef 49 e9 d5 be af dd bf
       1.7155782276987988 -0.4638516510941874
000250 96 fe 63 ee 1b 99 ea bf 8f 7f c9 6c 6f 41 ed bf
       -0.8311900764528726 -0.9142377018688296
000260 91 1a 8e bc b6 fa d6 bf 88 a9 39 31 b5 d4 e3 3f
       -0.35905235684951103 0.619715305464795
000270 a9 52 33 cf df 6a b2 3f 37 0e 9b aa 4e 74 f7 bf
       0.07194327171903105 -1.4658953346523853
000280 0b 37 9a 98 c1 8d fb 3f 9e 1c 78 14 32 91 91 3f
       1.7221084557563155 0.017155439853038794
000290 46 b2 79 22 6f da e3 3f bf af 4a 2d 3a 67 f3 3f
       0.6204143212649533 1.2127019662102467
0002a0 60 67 8b bd c5 02 f3 bf 5e 03 6e cb 4b 84 f6 3f
       -1.1881768611987908 1.4072988459085631
0002b0 39 b1 6c 75 f3 8c f5 bf b4 88 ee 89 8d 44 a3 bf
       -1.3469118677995324 -0.03763239201295346
0002c0 0d 66 be 43 21 81 cf 3f 2c 85 61 d2 d0 0a f0 3f
       0.24612823303031953 1.002640554237881
0002d0 45 28 2f 4e 4f 8f f3 3f b9 90 5c ca 25 9a da 3f
       1.2224877409048684 0.4156584240138375
0002e0 b5 7b d1 6c 78 2e f9 3f 18 bc 2c f2 2e e3 f3 bf
       1.5738453150477032 -1.242964693064783
0002f0 b4 b8 42 5a 69 58 c0 3f 51 4f 58 f5 60 44 e5 3f
       0.12769810588128438 0.6645970146077876
000300 dc 8f 0c 0f da a8 b7 bf 6f ae 02 ae a5 f8 d4 3f
       -0.09242022387894572 0.32767621987543455
000310 3a 22 ab 1f 00 54 f4 3f 15 4f a4 8c b9 38 c0 3f
       1.2705079304743223 0.1267311035850233
000320 79 f0 c8 be 77 ef e5 bf ec 4b 14 3a 6d 0c da 3f
       -0.6854819036739307 0.4070084635906699
000330 ce d9 be c7 25 3e e6 bf 9e c0 8f ee f3 fe ec bf
       -0.6950863744048605 -0.9061221751599253
000340 84 a5 17 6a 0a e4 e0 3f af ed 90 ac b6 d7 c2 bf
       0.5278369972340191 -0.14720805574493798
000350 b1 ea 59 f7 c4 1d e9 bf b9 8b 86 72 18 d2 f2 3f
       -0.7848839598730902 1.1762928460745867
000360 6d 26 13 ec 8a 30 f6 3f 3a 92 3f ed 32 b5 e8 3f
       1.3868512365028451 0.7721190103298519
000370 c2 2b cf 03 44 55 ef 3f 88 65 6f 5b 01 a4 f5 bf
       0.9791584085845602 -1.3525403567967675
000380 61 99 c1 80 3e 74 eb 3f 11 c2 4e 1d 67 4c e5 3f
       0.8579399599810068 0.6655765125670446
000390 d9 61 37 97 78 e6 fa bf 6d 3d 9d ee 7a eb e8 bf
       -1.6812673479927212 -0.7787451420244175
0003a0 b1 2c 4c 84 56 2d e9 bf 8f 7f c9 6c 6f 41 ed bf
       -0.7867844184815082 -0.9142377018688296
0003b0 2d 77 4d 06 70 7f ef bf 51 84 7b 3d e1 51 eb 3f
       -0.9843063471887256 0.8537450981931533
0003c0 64 d5 a9 7b aa 0d f0 3f 6b 58 3a 4e 94 a3 d2 bf
       1.0033364134408993 -0.2912340892738771
0003d0 d3 e4 84 36 d9 c8 f7 bf 59 01 11 8e 82 5a ee 3f
       -1.4865352754261962 0.9485485815749072
0003e0 8b 65 49 87 21 a4 f1 bf b6 58 68 bb b1 a9 f4 3f
       -1.1025710377346936 1.2914292641267315
0003f0 1e d6 86 03 9d 80 eb bf 08 cc e9 df 6b 50 f1 3f
       -0.8594498700028372 1.082134127293786
000400 ae b9 fc 99 f8 06 da bf 69 b8 f4 2d a6 25 f9 bf
       -0.40667548215688043 -1.5716916842607367
000410 62 0d 12 56 52 da df 3f 46 59 15 d1 e4 c4 dc bf
       0.49770029454540154 -0.44951744478511946
000420 f0 bd 48 54 f3 41 f1 bf 6e 2d a3 a5 7e b3 f8 3f
       -1.0786011974668064 1.543821951886311
000430 f6 28 f3 02 be 72 f2 bf ed 86 39 f5 80 bc e2 bf
       -1.1530132403591415 -0.585510710672876
000440 0f 44 7c 9f 70 bc e8 3f 9f 13 ca 38 ea 32 f1 3f
       0.7730029215764506 1.074930402596898
000450 e8 57 ce 24 b0 99 ec 3f dd f9 46 ee 9f 61 e4 3f
       0.8937607497089148 0.6369170812466184
000460 2c 58 7b f8 30 a4 89 3f ed c5 ec e2 94 a4 d9 3f
       0.012520201285422493 0.4006702629149846
000470 86 37 7b b3 68 aa ea 3f 63 95 c8 9f b9 f0 ef bf
       0.8333018784994557 -0.9981353874942837
000480 21 0d 96 62 0f 06 fa bf 30 8c ae 04 4f 49 f0 3f
       -1.626479516126729 1.0178976233371593
000490 7a 00 4c b3 e6 0e f2 3f ff 28 0c d6 41 02 ef bf
       1.1286379817757095 -0.9690255337348218
0004a0 9b 5d 63 af aa a5 e3 3f 7a a1 31 f7 71 2b e5 bf
       0.6139729905652759 -0.6615533664708402
0004b0 9e 1c 78 14 32 91 91 3f 7a b9 a7 85 76 23 e3 3f
       0.017155439853038794 0.5980789766743293
0004c0 eb 92 9f 57 b1 06 da 3f 88 65 6f 5b 01 a4 f5 bf
       0.40665849263159143 -1.3525403567967675
0004d0 4e 82 61 ec 10 db f3 3f 19 3b 29 84 3b c1 f7 bf
       1.2409829362515157 -1.4846758997479752
0004e0 28 b2 c3 7f 66 96 e5 3f 09 80 56 ca 47 6d ef bf
       0.6746094222449459 -0.9820898963844239
0004f0 60 90 64 70 71 30 f9 bf 38 69 a7 1f 8a 61 f0 bf
       -1.5743269338936656 -1.0238133656008142
000500 ce 70 a7 97 58 59 ea 3f 17 fa 4f 4c fa 9b c4 bf
       0.8234065019601304 -0.1610100624674977
000510 3e 83 01 31 f8 fe e7 bf b2 0a 9f 89 76 86 c1 bf
       -0.7498742062708528 -0.13691598624980866
000520 38 90 27 ce 22 bd f7 bf ff 28 0c d6 41 02 ef bf
       -1.4836757710372819 -0.9690255337348218
000530 74 4c 50 34 b1 4a e7 bf 7a f9 f5 06 db e9 c1 bf
       -0.7278677007437993 -0.1399492057789294
000540 1e d6 86 03 9d 80 eb bf 01 2c 8e c2 48 bf e9 bf
       -0.8594498700028372 -0.8046001243504862
000550 c5 59 20 d1 db 7e f7 bf 4e 79 98 be 2f b2 f9 3f
       -1.4684713524817294 1.6060025639668143
000560 a8 b8 88 12 60 29 d0 bf da fe 3d 8b 81 c7 c5 bf
       -0.25252534685103933 -0.17015094088491517
000570 45 28 2f 4e 4f 8f f3 3f 11 83 5f fb 32 8f e0 bf
       1.2224877409048684 -0.5174803647642837
000580 2d 17 0b 3e 54 31 fa 3f 18 bc 2c f2 2e e3 f3 bf
       1.637043230396965 -1.242964693064783
000590 4f be 6e 87 ae a9 f2 bf bf 1e 35 2f 95 cd f4 bf
       -1.1664262094817734 -1.3001911014597878
0005a0 d9 61 37 97 78 e6 fa bf de 53 5d 15 63 c0 f8 3f
       -1.6812673479927212 1.546969493346516
0005b0 a6 b9 ef c3 50 ce f1 bf 70 93 9b 51 00 db c9 bf
       -1.1128699926153813 -0.20199588761093024
0005c0 48 7d eb 75 b8 97 f3 bf cd 3d 55 0e 77 0f c7 bf
       -1.2245411497350052 -0.18015945625164279
0005d0 6d 26 13 ec 8a 30 f6 3f 07 34 6d 91 24 99 fb bf
       1.3868512365028451 -1.7248883896566
0005e0 9d a3 52 56 ec a4 f6 bf dd cf 55 55 5d f1 f7 3f
       -1.415264451216195 1.4964269002348296
0005f0 4b a5 f4 8f c2 aa f6 3f 03 80 38 a7 f2 bb f1 bf
       1.4166894553439586 -1.108385709005234
000600 38 69 a7 1f 8a 61 f0 bf 7c b6 b6 01 3b e1 f8 bf
       -1.0238133656008142 -1.5549879137937799
000610 f5 29 b5 3f db 05 c9 3f 78 ae 8b bb dd d8 ea 3f
       0.19549122439123293 0.8389729178429226
000620 ff c1 7f 80 6e 8a e4 3f f8 db 71 8c e7 ad f8 bf
       0.6418983945605418 -1.5424571500896018
000630 d7 b5 fb 43 ef 53 e0 3f 3b 86 01 0c 83 1c f7 3f
       0.5102459266469691 1.4444609135611148
000640 7a 74 7c 04 83 72 bc 3f b4 88 ee 89 8d 44 a3 bf
       0.1111223112061043 -0.03763239201295346
000650 b8 8f f0 c1 2f dd da bf 68 03 57 60 d6 ea ee bf
       -0.41975015582488195 -0.9661666757238949
000660 dc 8f 0c 0f da a8 b7 bf 23 ae 0f ce 1d 55 ef 3f
       -0.09242022387894572 0.9791401886590773
000670 c9 5f 96 c1 a4 0f fa 3f 28 b2 c3 7f 66 96 e5 3f
       1.6288192331321503 0.6746094222449459
000680 08 d5 bc d1 3a 09 f8 bf d4 6d 7b f0 8c e7 e3 bf
       -1.5022533600688934 -0.6220154473225485
000690 59 c2 5d a0 6e 72 d7 bf 7b 8d 76 e4 6a 31 e5 3f
       -0.366359383208907 0.6622824155969477
0006a0 d3 4a 27 ff 36 c6 d4 bf b1 63 53 f9 3c 45 f8 bf
       -0.3245980731709725 -1.5169038523947445
0006b0 83 4a d8 87 bd 6d f3 bf 2b 3f 6e e5 01 be f8 3f
       -1.2142920786324403 1.5463885271200961
0006c0 6d 26 13 ec 8a 30 f6 3f 36 65 07 8d e8 7a cd 3f
       1.3868512365028451 0.23031336675811936
0006d0 72 0c d9 62 f6 18 f7 bf 98 5b 06 e9 38 57 e7 3f
       -1.4435943471187582 0.7293972541109381
0006e0 98 20 da e0 34 51 f8 3f e5 22 ee d5 a4 5a e9 3f
       1.5198258193286502 0.7923149278950318
0006f0 06 ce 39 f3 98 92 fa 3f d5 03 58 0e 7f 54 f2 bf
       1.6607903958328065 -1.1456289825730341
000700 d6 a9 87 50 b4 d5 eb bf 1d 2a 4b b0 13 ee f0 3f
       -0.8698369572496698 1.0581242453068918
000710 0f 8c 83 26 7a d0 f2 bf 61 b8 d8 20 01 d5 c4 3f
       -1.1758977417418952 0.16275037864528755
000720 b4 88 ee 89 8d 44 a3 bf b4 87 c7 2d a0 ee ea 3f
       -0.03763239201295346 0.8416291135911167
000730 a4 8b f7 da be c3 f9 3f 9e 1c 78 14 32 91 91 3f
       1.610289435710663 0.017155439853038794
000740 3b e3 17 f6 7d e3 eb 3f 18 fd f1 9f e6 53 ee 3f
       0.8715200239667874 0.9477418064051646
000750 d6 f4 ae 31 03 3c c7 3f 46 dc ed 15 bb fe d0 bf
       0.18151893545101555 -0.2655475343848973
000760 2d e4 a4 69 dd f3 f3 bf 59 01 11 8e 82 5a ee 3f
       -1.2470373274538915 0.9485485815749072
000770 81 c6 2c a2 c8 28 63 3f 50 52 19 a4 d9 5f fb 3f
       0.0023387831328356983 1.710900918017746
000780 d7 b5 fb 43 ef 53 e0 3f a6 63 6b 1b 33 62 bc 3f
       0.5102459266469691 0.11087340754910588
000790 2f 22 90 a4 3b dc f1 3f a9 52 33 cf df 6a b2 3f
       1.1162678173296958 0.07194327171903105
0007a0 36 9f 8d b3 e8 98 d0 3f 10 d1 e5 60 d9 44 de bf
       0.25933282408230995 -0.4729522176997003
0007b0 88 65 6f 5b 01 a4 f5 bf a5 58 3e 14 da 5e f1 3f
       -1.3525403567967675 1.0856571951640401
0007c0 d5 37 d5 5b 1f c0 f6 3f a8 12 ea 88 5c 22 f2 bf
       1.4219049060079574 -1.1333890293327986
0007d0 69 60 ea 8d b5 ad d9 3f 62 12 c8 40 9d a2 e8 3f
       0.4012273679632075 0.7698503747238414
0007e0 98 5b 06 e9 38 57 e7 3f f9 7f 16 9e c1 4f fb bf
       0.7293972541109381 -1.70697175744135
0007f0 f5 44 0c 74 2f 30 f5 3f 40 ba 10 90 6a 84 f6 bf
       1.3242640050050885 -1.4073281886627598
