artifacts/347e2203-e8bd-4af4-b2f3-da66e83996a4_train.npz (npz, 82602 bytes, 1 tensors)

X f8 [2566, 3]
00000000: 3af4 2244 3e80 f1bf a2e2 cec3 15e4 f0bf
00000010: 6d5e 21d4 e8a4 f53f f548 acff 6956 e1bf
00000020: b2e1 2e74 efa5 f0bf d510 67cf 6780 e73f
00000030: f925 18d1 3762 d93f bc01 90f8 9ea3 efbf
00000040: b80c 6770 bea0 c9bf 6fcf 2a48 8f0e e93f
00000050: 2ecd d090 f899 e8bf 0ce3 ce06 1d7b f2bf
00000060: c0bf 44fe f291 cd3f 24e0 e2e0 a7d3 f3bf
00000070: 9d4d 2bc1 adcf f3bf 0a32 3680 dae3 c3bf
00000080: a869 6d50 6dce c2bf 2f0a b326 25f9 f8bf
00000090: 2a24 b403 bbe4 f83f fe81 27e3 c142 e73f
000000a0: 5fe5 03a4 cf49 f53f 934c 749a 6351 d23f
000000b0: af2e 6e94 14a7 d93f 4955 5caf 650b f83f
000000c0: 579f 888a d5c6 f93f 5183 c9ca d372 efbf
000000d0: c2a2 9c2a 4b5c edbf 1d41 b9da 1b98 f33f
000000e0: d386 2330 7497 f4bf 65e9 865f e89a e0bf
000000f0: f9c3 6f88 4755 fabf 312e d43d 6d08 f83f
00000100: 4a20 899b f043 fabf c065 a0d8 8d26 f4bf
00000110: 4624 4d5b 5e49 ebbf 72f4 b901 0bce e73f
00000120: 1a5c 49e6 c2ea f5bf 0179 8084 fdd3 c8bf
00000130: 3cfb 0c5d 9eee dbbf 15d9 813a 5a4a e73f
00000140: ce85 e79f a33b ed3f f378 49a6 3936 f63f
00000150: e819 fa21 95e0 be3f 28e3 9e10 0c13 efbf
00000160: 7787 6313 b6bf bfbf 5b22 5036 3e67 e8bf
00000170: 8911 fb67 d6fa ee3f 5921 5ab5 f636 f3bf
00000180: a0cd c67a 1291 f8bf e01e 0a16 5f24 e9bf
00000190: edf2 ab69 bdd3 f63f c8c5 d355 c4d2 ea3f
000001a0: 3697 6891 8638 f2bf 5a9c 8f15 d577 f83f
000001b0: 7737 62e8 505c f53f 1d35 7edc baa1 e13f
000001c0: 9451 8912 b98d f93f d02d 0bf6 8520 f73f
000001d0: 2959 828f 986e e7bf a178 1ff8 202e f33f
000001e0: 4abc 8d61 367a f43f 8cc0 6a41 6451 e8bf
000001f0: e4d4 73d9 6263 c4bf f1c5 e453 01b6 f23f
00000200: c975 fc8a 7f76 d43f 839e a193 09e9 dd3f
00000210: 1c67 b2b4 ecbe b03f 34bb 4cb4 bec5 f63f
00000220: dc41 5d4d db0a ebbf 7737 62e8 505c f53f
00000230: fa27 65fa 5dd9 f7bf 5e6d a044 d142 f73f
00000240: b418 f943 732b eabf 9801 eb2b 32f7 d3bf
00000250: 766b 476e 0eec f2bf bce2 d82c 2586 e53f
00000260: 1ad9 517e 0831 f4bf ff08 452b cac8 c13f
00000270: 7352 f2f3 f7ae f7bf 1989 ea20 15e4 f9bf
00000280: 9e70 8e87 442b f0bf 22bc 7c63 f996 ec3f
00000290: a798 03fe 02b7 e83f f98e cc6d c46c eebf
000002a0: 1edf 1092 2b8b d4bf 6005 4450 d1f9 e13f
000002b0: 22c7 d557 5cd9 c3bf d1cb 62ad 9513 d8bf
000002c0: 4b44 7336 9fb4 e7bf 5515 60d4 7e48 f1bf
000002d0: 1d41 b9da 1b98 f33f fee6 fb89 4f77 f13f
000002e0: 06e3 5b52 2694 f53f 676f f7ca 5862 f2bf
000002f0: 1eab 4197 0b40 ab3f 349c ebff 8681 f4bf
00000300: c1fb f36c 1278 efbf 4b44 02b2 34b7 d2bf
00000310: 1787 cd6a c38d eb3f 5ae6 a0c7 1e81 c63f
00000320: 3bca 3ede afe3 eabf 4cf3 7e90 58d3 e2bf
00000330: 1c67 b2b4 ecbe b03f 9a3f 00fe 4ebd f2bf
00000340: 17de c658 357a ee3f 934c 749a 6351 d23f
00000350: e111 92a5 466d f5bf a97a 4fbb 5c68 cebf
00000360: c1fb f36c 1278 efbf 26e3 bcc2 fd54 e23f
00000370: 692f a61e f42e e6bf 37a5 06e4 6924 dfbf
00000380: dbed 4e4d 7404 ec3f 705a 9c20 e86a bdbf
00000390: 579f 888a d5c6 f93f ba82 8848 9ed7 fabf
000003a0: 75b0 c6f7 d678 fb3f 934c 749a 6351 d23f
000003b0: 4e8b 7784 3253 e03f b052 1724 424f f23f
000003c0: 700b dab6 aef4 cabf 0d47 3d0d 3fdf fb3f
000003d0: 39d1 046c 0beb f3bf a4b2 366f 6b3e f63f
000003e0: 2330 3b55 4b99 ecbf ed81 53fc 5cda fabf
000003f0: 1edf 1092 2b8b d4bf 319c 1509 1a7d f63f
00000400: 98c7 a30b fb5f f8bf 1a5c 49e6 c2ea f5bf
00000410: 6206 2c1a dffc c4bf b5b0 1494 e450 d5bf
00000420: e819 fa21 95e0 be3f 9090 2481 ff1e e8bf
00000430: f0b3 5c0a 326b dc3f 93ea cb51 7344 f3bf
00000440: 28e8 d961 2220 a4bf 0dfd b0e2 79e3 f73f
00000450: 7737 62e8 505c f53f 5d39 e5bd 1b01 e63f
00000460: dc70 91df 5375 f33f 4e3f 550d 9f1a e3bf
00000470: 7683 0af3 96a2 e1bf 9953 77f8 cc23 c2bf
00000480: 84b8 b4c8 ff9b dbbf 90cb 5a8a b56b d9bf
00000490: 51db dc15 ee0c eb3f 4639 c6b5 cdd9 d53f
000004a0: 9929 4dae 6e47 f33f 4f8d 0cb2 6aa0 e73f
000004b0: d02d 0bf6 8520 f73f a969 6aa3 3bb7 f1bf
000004c0: 69cc aca4 fc11 f6bf f925 18d1 3762 d93f
000004d0: a934 54b4 8f73 f73f b5ae cf8c cbe1 cfbf
000004e0: f8fc b94b c808 a7bf b821 8ea6 9e7c a23f
000004f0: f144 ef72 602b e93f f1c5 e453 01b6 f23f
00000500: 92ee 4dfb 6230 673f 27e2 86b9 39b4 f73f
00000510: 97cf 3b46 ccf1 f03f 4291 c5a4 2a8b f73f
00000520: cf6c f8db 2420 f83f 80a2 553b 22ea 843f
00000530: 522b 82c4 b234 f63f cb89 c4d0 f668 e33f
00000540: 15d9 813a 5a4a e73f 74cd aaf3 6dd4 e73f
00000550: 1f52 ad10 5460 ea3f c065 a0d8 8d26 f4bf
00000560: c875 4f5b 4cf8 e3bf ede0 5452 d495 f9bf
00000570: 6a54 67bf b10f f03f 0433 eb81 4b54 ea3f
00000580: cb3f 84f0 75ee e7bf b095 3198 0a8b fb3f
00000590: 85a4 8fd1 2ab1 f1bf 1afe de1c 2542 e73f
000005a0: 5ae6 a0c7 1e81 c63f b3d2 b416 5c2c f0bf
000005b0: d33e bca6 8bfc f93f 09f6 8611 bbfd e13f
000005c0: d020 21a2 d319 e63f 1a28 dcb4 cf3c f0bf
000005d0: c065 a0d8 8d26 f4bf 6325 1781 af86 f2bf
000005e0: 8528 4b95 0178 f63f 5b22 5036 3e67 e8bf
000005f0: 1e7e 9c75 bb69 f23f 72f8 a7b3 b4cd f93f
00000600: ac12 6aec a1ea dc3f 2d62 a428 4d8a e9bf
00000610: 8525 ffde 035b f73f 579f 888a d5c6 f93f
00000620: 0574 d315 4c18 d6bf c68b e107 98ee e2bf
00000630: 6a54 67bf b10f f03f 0ea2 bf11 2e6f f0bf
00000640: 41b7 8679 02c1 f3bf 263f 440f 6237 fbbf
00000650: 357d 2dc1 3285 b53f f54c 4d00 7fce f2bf
00000660: 579f 888a d5c6 f93f 5a97 24f0 7eec f83f
00000670: 65fa 0e16 976b d4bf f8fc b94b c808 a7bf
00000680: e9f6 f393 7c91 f83f 1599 e4d3 6f19 f0bf
00000690: 700b dab6 aef4 cabf af44 4669 27fb f73f
000006a0: de4a 0c77 d11f e6bf ede0 745f a808 f5bf
000006b0: 1566 0208 b3ad dcbf 9746 19bb 5ad8 f73f
000006c0: f8fc b94b c808 a7bf 0a3f e7f6 6280 f4bf
000006d0: ca02 71d5 3602 40bf 0a32 3680 dae3 c3bf
000006e0: 7747 c4d8 2734 dd3f d23f 1e5e f282 de3f
000006f0: 97cf 3b46 ccf1 f03f 1530 846e cbda b53f
00000700: 8d7e 3d81 f9de c33f 4639 c6b5 cdd9 d53f
00000710: dc84 229c 755c d93f 1c9e 05ed ba99 f13f
00000720: d02d 0bf6 8520 f73f 79cc 07b2 9ed9 eebf
00000730: 3d54 4259 475a de3f d1cb 62ad 9513 d8bf
00000740: 6e36 02c9 8d8f acbf 7eeb aa8e 6f60 e23f
00000750: 97cf 3b46 ccf1 f03f bbdd 60be 5968 f73f
00000760: a2f9 c8a0 8e57 edbf a835 fe1a d4de e4bf
00000770: c5bf cd03 3de8 f3bf cddd af63 6468 fb3f
00000780: 4639 c6b5 cdd9 d53f 1009 f8bd 48a1 e23f
00000790: 8ce8 ee4d ff16 f13f c065 a0d8 8d26 f4bf
000007a0: 6e28 c02a ae14 f1bf 2960 61d3 13cc f83f
000007b0: 579f 888a d5c6 f93f 7494 81e4 a75a fbbf
000007c0: 6601 ee52 7846 e4bf e819 fa21 95e0 be3f
000007d0: 8270 b1e5 c484 a03f ba2c eb49 ed69 f5bf
000007e0: c44a 10cd e6d3 f13f fedb 1c62 22dc e7bf
000007f0: 7a04 a197 a6a6 ec3f 1edf 1092 2b8b d4bf
-1.0938093816360053 -1.0556848191028299 1.3527611051885302 -0.5417985910046627 -1.040511564102513 0.7344245005447428 0.3966197530686198 -0.9887232641922803
-0.2002180146065251 0.7830273065105596 -0.7687952831678666 -1.1550569787925182 0.231016515879217 -1.2391737732523405 -1.23820281464291 -0.15539103756272282
-0.1469246523582346 -1.56082644574111 1.5558424133944393 0.726899093304439 1.330520287212799 0.28621759494235127 0.40082277770191416 1.5027825212503834
1.6110434924575736 -0.9827670059859007 -0.9175163109076367 1.2246359390156336 -1.2869760399266184 -0.5189096322786041 -1.6458201722673478 1.5020573058308282
-1.6415868831263816 -1.259412618825408 -0.8527061255673594 0.7439017327993851 -1.3698147769516766 -0.1939694306356117 -0.4364391239832235 0.7278262274474253
0.913530170739415 1.3882385726533897 0.12061435775294849 -0.9710750889417783 -0.1240190312705901 -0.7626029072571997 0.9681198149560696 -1.200918873220948
-1.5354180141410794 -0.7856898718318597 1.4266943099784684 0.8382283855736938 -1.1388002090474862 1.5292559473253022 1.3350380971419022 0.5509924227241388
1.59710032692701 1.4454402552681707 -0.7322504809297118 1.1987619106580854 1.279837018078768 -0.759935500876979 -0.15928302400394678 1.1694348599524995
0.3197325570380057 0.46734847466584756 0.06541327868981422 1.4232775729139577 -0.8450752745648589 1.3350380971419022 -1.4905681401310162 1.4538128548363924
-0.8178039863203339 -0.31196264542452345 -1.182630949761657 0.6726251483842911 -1.2619709905971548 0.1389401160504988 -1.480216935077945 -1.6181842122828753
-1.0105634017154794 0.8934294646368282 0.7723402939998508 -0.950777258349688 -0.3209942747521256 0.5617453162850943 -0.15507082260915533 -0.37619535381525987
-0.7407985747796685 -1.080199079123607 1.2246359390156336 1.091628588676428 1.348669358934957 -1.1490104606991396 0.053223001684122404 -1.2816228863610037
-0.9834072235097367 -0.292431997143528 0.8610550962441462 0.17581543681608275 -0.8402938214042658 -0.5882990667520089 0.06541327868981422 -1.1712179109490308
0.9524180158541097 0.28621759494235127 -1.3391787021256436 -0.23755988260287111 -0.9834072235097367 0.5728749087785203 -0.6932316397301125 -0.4865975119415284
0.875543738358313 -0.11491251751099596 1.6110434924575736 -1.677641185124385 1.7170018843417243 0.28621759494235127 0.5101559245343681 1.1443501863297278
-0.21059211662585708 1.742003490177413 -1.2448839396939333 1.3902391762050366 -0.8937126793548525 -1.678311334275459 -0.3209942747521256 1.405542407499308
-1.523432774989919 -1.3698147769516766 -0.16396702554634418 -0.33306230984704693 0.12061435775294849 -0.7537839433976092 0.44404269229818194 -1.2042115397622737
-0.039307665295339966 1.493036160958414 1.3350380971419022 0.6876352986235293 1.2161444409494413 -0.5969996700677969 -0.5510973688979977 -0.14171754963049635
-0.43139643287839413 -0.39719904433439357 0.8453283717161445 0.34141867400548553 1.2049395378731786 0.7383321263809338 1.4454402552681707 -1.1072346099304957
-1.3793913300148921 0.3966197530686198 1.465713219079854 -0.2490782201342562 -0.0449888794364543 0.0361070230783897 0.7865450138871478 1.1694348599524995
0.002830689738798694 1.4815003630775523 1.0590327018262309 1.4714762150188823 1.507847651729026 0.010212199626679963 1.3878657985794303 0.606563003301113
0.7278262274474253 0.7446813353657675 0.8242588353846861 -1.259412618825408 -0.6240598472028802 -1.599079438789029 1.0038316227630966 0.8227899110293895
-0.7478589723195851 1.721445650583842 -1.1057537256222372 0.7268243373764023 0.17581543681608275 -1.0108300101248175 1.6241566193675012 0.5622229902580226
0.6906526724424342 -1.0148465218394507 -1.259412618825408 -1.1578822176546388 1.4042983848362678 -0.7626029072571997 1.1508135408584006 1.6127211587732089
0.45182083213175406 -0.798132495288035 1.4597204886252666 1.6110434924575736 -0.34523298388904805 -0.591625228302626 1.0038316227630966 -1.0271435445121173
-1.2346215006941323 -1.701021251330482 0.08406369415523758 -1.1754140865130556 1.6110434924575736 1.557738245066011 -0.319066783467781 -0.0449888794364543
1.5355191974080589 -1.0062101628369124 -0.21059211662585708 1.4988168823513595 -0.6913840603977766 -1.3146136978885423 -0.4481017664162164 1.4903209026855728
-0.0449888794364543 -1.281344379869497 -0.0004885452025363498 -0.15539103756272282 0.4563083283293205 0.4767423552630109 1.0590327018262309 0.08536979149010933
0.15524214563901176 0.34141867400548553 0.39626827476065585 1.1000317820233994 1.4454402552681707 -0.9640649296910758 0.47426017491062905 -0.37619535381525987
-0.055782728945911284 0.5742719446637776 1.0590327018262309 1.4629762112289046 -0.9169381275494752 -0.6522007491309312 -1.2441988133032151 1.7129863637945733
0.34141867400548553 0.5821880064325189 1.0681145710246112 -1.259412618825408 -1.067548911089513 1.5498235947652665 1.6110434924575736 -1.7096327711126635
-0.6336022968026043 0.12061435775294849 0.03226294807311182 -1.3383610618064226 1.1142337808893652 -0.7456218639625829 0.8953431092742357 -0.3209942747521256
