artifacts/4e5479bb-816d-4bed-b610-cee173b6f329_train.npz (npz, 82346 bytes, 1 tensors)

X f8 [2558, 3]
000000 70 cc f8 f5 a1 f3 cd 3f c7 4f e6 df 87 3f e0 3f
       0.23399757871957005 0.5077552197494634
000010 a3 0f 1a 20 4b 1b f5 3f ef c9 80 9a 0e 07 c3 bf
       1.3191634420372587 -0.14865286392303242
000020 62 86 40 4c 5d 2a f5 bf 59 59 d6 e2 31 20 f8 bf
       -1.3228428820224498 -1.5078600750763
000030 e4 26 be 23 45 3f f1 bf 2d 58 14 21 e5 0f d9 3f
       -1.077946796055067 0.39159515600602185
000040 9a 7c 78 a6 f4 3c f0 3f 30 05 7f fe 63 02 d4 bf
       1.0148817541847053 -0.31264591076986203
000050 1b 92 c9 b2 29 a1 7d 3f 3a cd 9e 72 05 3d f2 bf
       0.007233775028542523 -1.1398977734905444
000060 f2 b1 ec 74 76 1c f6 3f 01 d7 1a 27 45 1c f2 3f
       1.3819489066473776 1.131901886704725
000070 2d 72 20 86 4f fa f1 3f ab fd dc ee 1b 3f ed bf
       1.1236109961820475 -0.9139537492082374
000080 6d a2 8c b7 ed df ee 3f 5c af de 8e f6 ad e5 3f
       0.9648350319813069 0.6774857321192758
000090 ef c9 80 9a 0e 07 c3 bf 18 22 95 01 a3 1f ce 3f
       -0.14865286392303242 0.23534047677300474
0000a0 ec 65 fc 4c fd a4 f7 bf 34 27 2d 8f d7 9c f2 3f
       -1.4777806288969897 1.1632915108516046
0000b0 82 ec a8 78 ca ab e0 3f 88 a7 e7 48 14 1c e4 bf
       0.5209705692899578 -0.6284276412891225
0000c0 4c 38 fd 7b 4c 7f eb bf d3 57 3b a3 ac c0 c4 3f
       -0.8592894002592941 0.16212995500853697
0000d0 2e f1 c8 39 86 19 d4 3f 13 98 be ca 6f 00 e1 bf
       0.3140578808122595 -0.5313033065656348
0000e0 65 43 3f 90 80 28 f0 3f b5 2a 1c 55 55 95 fb bf
       1.0098882326749046 -1.7239583325014511
0000f0 5f 3c 3d ef 82 3e f8 bf ff 92 de 85 b1 54 db 3f
       -1.5152615876466127 0.42704427788912364
000100 38 c2 8b 23 f3 7a ef 3f 72 5d 9e 3d 3f c0 e2 bf
       0.9837585157639017 -0.5859676555145781
000110 5e 5e fb 14 88 a8 e4 bf d0 91 8e 96 79 21 8f 3f
       -0.645572701435366 0.015200567156917894
000120 e3 09 9d 48 bf 7c f3 3f 7b 9d af 89 b0 e8 86 3f
       1.2179558598005478 0.011186007692187463
000130 b1 d9 ca d7 39 6f f9 bf f6 0d dd bb f5 3b e0 3f
       -1.5896547727003105 0.5073193234642861
000140 18 b3 1c 99 a0 c2 fa bf 32 78 c8 e8 44 7c fa bf
       -1.6725164395276746 -1.6553391545380802
000150 34 68 c7 7f ac 6a 8f 3f cb 7c 68 d5 18 09 df bf
       0.01534018292379722 -0.48493023720398004
000160 ca b4 f6 b5 2d 70 c4 bf 13 5e 7c 14 64 7b e5 3f
       -0.15967341790147876 0.6713123703111158
000170 05 23 1d 50 ae e9 f8 bf a9 ce 79 f3 bd f6 f7 bf
       -1.5570510034032747 -1.4977397452138723
000180 d1 22 7e b0 0e 80 e4 bf 90 a9 23 48 56 c9 fa 3f
       -0.6406320044635213 1.674154550356068
000190 45 c5 60 0c 61 c4 f6 bf 34 68 c7 7f ac 6a 8f 3f
       -1.4229441150203723 0.01534018292379722
0001a0 6c 5c 7b 36 49 e0 f8 3f 77 aa b4 3e b6 bc f2 bf
       1.554757321185913 -1.171072239822619
0001b0 b3 7b 7b c6 0e f9 d5 3f d1 8c 70 d0 ee a4 ea 3f
       0.34332627661745646 0.8326334067427529
0001c0 8b ab a2 52 65 e9 f3 bf a1 94 5c 2e 5e fc f6 3f
       -1.2444813945719229 1.4366132555963207
0001d0 40 bb 60 b4 59 6f f6 bf 92 a1 e6 cd 61 01 e9 3f
       -1.4021851583490417 0.7814187070371637
0001e0 8e 73 fb df a1 7a ec 3f 23 f5 f3 82 f1 d4 fb bf
       0.8899697661068886 -1.7394881358480425
0001f0 03 1c 3b 34 d4 6f db 3f d0 e8 3b fa 02 fb e8 3f
       0.42870049572633223 0.7806410682090021
000200 94 96 99 c1 bc e8 c8 bf ef 97 6e 6b 60 01 f0 bf
       -0.1946025796234393 -1.000336093574784
000210 e4 26 be 23 45 3f f1 bf 18 fa c6 78 9c a4 df bf
       -1.077946796055067 -0.49442207140592265
000220 4f 8a 74 c2 31 38 f0 3f 30 e8 5d 23 de 3f e6 bf
       1.013719329443706 -0.6952963534124645
000230 86 41 1a b3 6e b6 ef 3f 97 12 9d 3c cc d9 fa 3f
       0.9910195825669212 1.6781732909886722
000240 71 23 5c 87 33 3b e7 3f 38 fd 9c 55 2d 46 f7 bf
       0.7259767192600589 -1.4546330780284062
000250 8a 26 1e e3 72 c7 e6 3f af 3c ac 5a 15 9c f9 3f
       0.7118467746633581 1.6006063024431503
000260 e2 29 2e 43 a8 d3 fa bf 46 bf c0 03 47 a7 f3 3f
       -1.676674139426375 1.228339209232176
000270 71 23 5c 87 33 3b e7 3f 4a cc 76 b4 7e 90 eb 3f
       0.7259767192600589 0.8613885426224297
000280 e6 fa a3 e5 00 8d f1 3f 69 a5 bd af 40 81 de bf
       1.0969246836027025 -0.47663895761669167
000290 1c 95 d2 a0 08 bd db 3f 15 05 36 99 54 6e f4 bf
       0.43341270165758927 -1.276936148148086
0002a0 00 77 5d 7c b3 7e f6 bf 04 3f ef bd 01 f8 d9 3f
       -1.4059328897487262 0.40576213405891814
0002b0 56 05 5f a2 a1 b1 f0 3f 73 7a bf 18 c5 82 d0 bf
       1.043367037069705 -0.25798156182091886
0002c0 95 0b a3 f1 ff 55 f8 3f 16 2b 8a 47 25 92 be bf
       1.520996040243266 -0.11941750523162073
0002d0 ed 38 db 52 71 3a ee 3f 1c 0f 89 42 ee 57 e5 3f
       0.9446341150558318 0.6669837283629678
0002e0 98 8e dd e1 c4 12 f2 3f 4b fe ba c5 40 fa ef 3f
       1.1295822928304116 0.999298464004775
0002f0 f4 65 4f 52 bd de e9 bf ee c3 17 b1 d6 9a dc 3f
       -0.808439884912501 0.4469506005689813
000300 b0 59 cd 35 9b 5e f7 bf 75 f8 76 7e 75 57 f7 bf
       -1.4605972386976696 -1.4588522853878463
000310 a9 02 07 fe aa a8 e1 bf 6d e4 8c 1b 3a de fa bf
       -0.5518393479797697 -1.6792546344934423
000320 8a 28 db 85 4e 82 f4 bf 88 22 4c a6 f8 45 e6 bf
       -1.2818131664994632 -0.6960414169307834
000330 af 3c ac 5a 15 9c f9 3f d9 3b c7 c4 5a 7f e1 bf
       1.6006063024431503 -0.5467962115598041
000340 ad 13 44 0c 6e f9 f2 3f f2 ce 0d 50 fc de f3 bf
       1.185895965493937 -1.2419398429018966
000350 5a 83 0d 8f c5 a6 d0 bf 17 b1 03 39 b2 f1 fa 3f
       -0.2601789376258715 1.6840078570485895
000360 13 5e 7c 14 64 7b e5 3f 16 38 9e 86 61 2c ed 3f
       0.6713123703111158 0.9116675976999911
000370 da 54 82 97 ae 63 d4 bf 13 5e 7c 14 64 7b e5 3f
       -0.3185841064053655 0.6713123703111158
000380 a2 e0 1a 79 0f d1 f2 3f 50 44 29 88 25 b1 d6 bf
       1.176040146890991 -0.3545621709536748
000390 51 94 ed c2 cb 9e f5 bf aa 48 49 3a af fa f0 bf
       -1.351268540799783 -1.0612022663886287
0003a0 69 e0 fc a4 c0 5b d6 bf 51 94 ed c2 cb 9e f5 bf
       -0.34935012924279946 -1.351268540799783
0003b0 34 fb 3e 8a 53 22 f9 3f 95 91 ba e3 65 db d8 3f
       1.570880451224821 0.3883909915841966
0003c0 f6 f0 bb e0 6f 79 d2 3f a9 a1 fd a5 5c 3f e6 bf
       0.2886619276685133 -0.6952346078879162
0003d0 29 dc aa b0 da 98 f8 bf 50 77 cc e7 45 dc f7 3f
       -1.5373179341384093 1.4912776045452638
0003e0 35 7e 7e 4a 47 3a d3 3f 75 eb b8 0f ec d5 f5 bf
       0.30043203615966557 -1.364727078833963
0003f0 5f 1f 1c 14 fd 7b fa 3f 17 86 4b d2 98 c9 f5 3f
       1.6552706513920936 1.3617180075310722
000400 0b f0 c5 d1 f7 8c b0 3f 71 06 3b ac ad 78 d9 3f
       0.0646510016576373 0.3979906255663997
000410 1a 47 44 4a ce 1f f4 bf 62 af 48 48 6d 22 f2 bf
       -1.2577650929492337 -1.133405001029097
000420 ab 1a fe c9 a1 01 db bf 9f f9 06 ac 55 da ee 3f
       -0.42197460866774844 0.9641521797091633
000430 b3 e3 88 08 52 37 e2 3f 0e 1f ad a8 6a 1e f9 bf
       0.5692529837316357 -1.5699259365955558
000440 ab f8 0c 5c 9f 1c f5 bf 7f 33 9a 56 f8 b2 c9 bf
       -1.3194879146317742 -0.20077423313741957
000450 d0 e8 3b fa 02 fb e8 3f 29 f1 f8 02 c9 f8 e6 3f
       0.7806410682090021 0.7178692873053808
000460 6d 0a 6d 68 95 83 f4 bf fd 17 f7 26 d1 eb b1 3f
       -1.282124908365087 0.07000453187274043
000470 17 4b a9 0d fd d7 f3 bf fc 84 5a 8f c6 eb e8 bf
       -1.2402315648693667 -0.7787812042116964
000480 71 06 3b ac ad 78 d9 3f 70 ee ec f9 9f 98 ba 3f
       0.3979906255663997 0.1038913712663374
000490 d0 0f a9 00 fd cc f0 3f e3 09 9d 48 bf 7c f3 3f
       1.0500459695622233 1.2179558598005478
0004a0 6a 64 99 88 61 27 f7 3f 00 dd cc 76 35 0c e0 3f
       1.447114499655323 0.5014903374020889
0004b0 0a c3 bc 61 eb fe ee bf a4 89 dc fc 74 01 f5 3f
       -0.9686180981571806 1.3128557088281037
0004c0 8f f4 fe 24 f1 e8 eb bf 8f ad 3d 96 ad ff e7 bf
       -0.8721852991653963 -0.7499607023614078
0004d0 6a 4b 10 dd 1d 1e bb 3f 58 04 76 4e fc 1c fb 3f
       0.10592829367696557 1.6945765557177506
0004e0 34 68 c7 7f ac 6a 8f 3f fb c3 ef c3 ff 3d d7 3f
       0.01534018292379722 0.36315912374908493
0004f0 f0 3b 81 1c 54 74 e0 bf 55 d3 bc 2e c5 fb e1 3f
       -0.5142002636656553 0.5619836724132293
000500 44 a3 69 e1 d6 20 e9 3f a4 36 ed 4c 06 0c f0 bf
       0.7852587130156299 -1.002935696119871
000510 34 68 c7 7f ac 6a 8f 3f 9d b8 97 ae e4 04 f7 3f
       0.01534018292379722 1.4386946506524858
000520 cc da 1b 34 c7 f3 f1 3f ed 38 db 52 71 3a ee 3f
       1.1220161471843992 0.9446341150558318
000530 ec 11 92 e0 86 ee ec bf 52 28 8a ff 9e b6 c0 bf
       -0.9041170488495118 -0.13057315328143432
000540 d0 e8 3b fa 02 fb e8 3f 1a 56 8c 8c 35 37 ee 3f
       0.7806410682090021 0.9442394013482869
000550 72 68 7d 7a 96 74 ec bf 93 ec 0c 02 a7 5c f4 3f
       -0.8892319099789019 1.272620208749491
000560 0d 64 87 7a 22 b5 e0 3f 25 49 bc 29 b0 2c f6 3f
       0.522111167253685 1.3859101896565076
000570 ed 38 db 52 71 3a ee 3f 77 c3 1e fc c4 b4 f5 3f
       0.9446341150558318 1.3566331718868392
000580 55 62 07 14 42 19 fa bf 55 d3 bc 2e c5 fb e1 3f
       -1.6311665327431417 0.5619836724132293
000590 28 d0 b2 ae eb 9c ec bf e8 84 c9 71 44 37 f0 bf
       -0.8941553508834703 -1.0134930081188092
0005a0 6a df ff 65 4c 06 ca bf 2d 77 98 fe 30 bf f6 3f
       -0.20331721287197563 1.4216775841845888
0005b0 f3 32 83 02 ea 99 f6 3f 8e 73 fb df a1 7a ec 3f
       1.4125766847748167 0.8899697661068886
0005c0 61 d9 b4 f0 9d 3f f5 bf 01 82 17 7d 6f b0 f0 3f
       -1.3280314829440487 1.0430750738524923
0005d0 e0 7b 0a 0e 4c 22 a4 bf 84 71 8f aa d8 ef e4 3f
       -0.03932416602514599 0.6542781192070355
0005e0 c5 20 6a bc 64 b8 d3 3f af 3c ac 5a 15 9c f9 3f
       0.3081294860826456 1.6006063024431503
0005f0 ba 0c 1b bf ba 91 f9 3f 19 b5 81 3b a6 43 a2 3f
       1.5980784859719237 0.0356723735465982
000600 f3 42 f5 bd 4c ea bf 3f ef 40 54 36 d1 bc e7 bf
       0.12466888082168363 -0.7417989789119285
000610 e2 27 1f e1 87 f7 d9 3f b3 7b 7b c6 0e f9 d5 3f
       0.4057330797628521 0.34332627661745646
000620 76 cf 7d 93 06 fa ee bf cb ae 62 0f 77 85 f0 3f
       -0.9680207138721773 1.0325842476840303
000630 34 44 4e 6a 5d 5f f0 bf 16 11 83 19 ae c5 f9 bf
       -1.0232824471061237 -1.6107617374955843
000640 7b 8f 92 eb e2 d0 d3 3f be 01 1d 62 52 fe f9 bf
       0.3096244144928659 -1.6245902855444991
000650 f5 fc ce 68 6c c9 de 3f 46 3e a3 3f 7a b1 e8 bf
       0.4810439132233591 -0.7716647379801962
000660 b3 7b 7b c6 0e f9 d5 3f d5 16 4f ad 12 51 f5 3f
       0.34332627661745646 1.332293202388816
000670 d9 01 ec 11 79 09 fc bf 4b fe ba c5 40 fa ef 3f
       -1.7523127269815773 0.999298464004775
000680 f2 a1 82 da f5 91 e5 bf 2e c1 db c3 d0 e8 d5 bf
       -0.6740674274233796 -0.3423349297218178
000690 5f 3c 3d ef 82 3e f8 bf e5 3a 38 2f cb 83 f5 3f
       -1.5152615876466127 1.3446761936681295
0006a0 a5 bd b6 b1 31 d5 dd 3f f2 ce 0d 50 fc de f3 bf
       0.46613733630052884 -1.2419398429018966
0006b0 51 ee d4 b7 8e 29 f8 bf 8d 9e 3f f8 75 0e f2 3f
       -1.510145872204607 1.1285304734427968
0006c0 6d e4 8c 1b 3a de fa bf cc bb e0 92 e4 4d f0 bf
       -1.6792546344934423 -1.0190168130318282
0006d0 5f 2f 88 9f 37 7e bf bf 72 5d 9e 3d 3f c0 e2 bf
       -0.12301967282126956 -0.5859676555145781
0006e0 15 e2 69 91 81 09 ed bf bf 47 f7 e8 1a 42 e8 bf
       -0.907410415659856 -0.7580694723239886
0006f0 b4 98 9c a1 94 bb e3 3f 4b 2f 16 fe 13 40 f8 3f
       0.6166480213621726 1.515644066358578
000700 1a 40 c9 1c 10 03 f8 3f a1 b1 7d 09 e4 be f4 bf
       1.5007477879007696 -1.2966041918508397
000710 0e 27 b1 83 58 6f fb bf b9 01 cf 44 8e fb f1 3f
       -1.7146840233057818 1.1239149749600144
000720 34 27 2d 8f d7 9c f2 3f 00 66 44 86 57 2c e4 bf
       1.1632915108516046 -0.6304128286748778
000730 d8 17 ca 91 8e ff fb bf 5f 1f 1c 14 fd 7b fa 3f
       -1.7498918242358652 1.6552706513920936
000740 d5 2b 12 49 82 c6 e5 3f 71 5f 70 10 92 dc e9 3f
       0.6804820468108753 0.8081751175950399
000750 e7 68 03 9e a1 0f b8 bf d3 ed b9 da f5 df d7 3f
       -0.09398851497408921 0.3730444561003569
000760 7e cb 14 d6 5a 3b f7 bf 51 94 ed c2 cb 9e f5 bf
       -1.451990925078206 -1.351268540799783
000770 b5 4a e9 22 90 97 ba 3f 00 e1 77 19 71 e7 eb 3f
       0.10387516834570472 0.8720021722247395
000780 b3 7b 7b c6 0e f9 d5 3f b7 1c 82 e0 dd 4b f7 3f
       0.34332627661745646 1.4560221452573339
000790 c4 68 b5 71 53 1c d9 bf f2 ce 0d 50 fc de f3 bf
       -0.39235387901647933 -1.2419398429018966
0007a0 c7 37 55 3c f9 06 e2 3f 31 83 5e 2b a5 b5 d3 bf
       0.5633512667061432 -0.3079617427375068
0007b0 d5 61 4d 1c 08 dd f0 3f 07 d3 76 48 60 ea b2 3f
       1.0539628129537182 0.07388879555839988
0007c0 41 04 71 72 9a e5 f5 3f f6 f0 bb e0 6f 79 d2 3f
       1.3685554952974288 0.2886619276685133
0007d0 c9 7b 2a de 46 83 ca 3f 4c 5b 1c 61 3d 07 da 3f
       0.20713125083872644 0.40669188006852575
0007e0 69 a5 bd af 40 81 de bf 16 b0 c9 4b 32 05 e2 3f
       -0.47663895761669167 0.5631343345862685
0007f0 77 1a 24 ba 3f 49 eb 3f f2 ce 0d 50 fc de f3 bf
       0.8526915202681512 -1.2419398429018966
